…
[2021-12-12 00:18:00,212: INFO: common]: yaml file: params.yaml loaded successfully
[2021-12-12 00:18:00,219: INFO: common]: created directory at: artifacts/base_model
[2021-12-12 00:18:02,372: INFO: model]: custom model is saved at artifacts/base_model/base_model.h5
[2021-12-12 00:18:02,372: INFO: model]: custom model is compiled and ready to be trained
[2021-12-12 00:18:02,380: INFO: stage_02_prepare_model]: full model summary: 
Model: "sequential"
_________________________________________________________________
 Layer (type)                Output Shape              Param #   
=================================================================
 conv2d (Conv2D)             (None, 28, 28, 64)        640       
                                                                 
 max_pooling2d (MaxPooling2D  (None, 14, 14, 64)       0         
 )                                                               
                                                                 
 conv2d_1 (Conv2D)           (None, 14, 14, 128)       73856     
                                                                 
 conv2d_2 (Conv2D)           (None, 14, 14, 128)       147584    
                                                                 
 max_pooling2d_1 (MaxPooling  (None, 7, 7, 128)        0         
 2D)                                                             
                                                                 
 conv2d_3 (Conv2D)           (None, 7, 7, 256)         295168    
                                                                 
 conv2d_4 (Conv2D)           (None, 7, 7, 256)         590080    
                                                                 
 max_pooling2d_2 (MaxPooling  (None, 3, 3, 256)        0         
 2D)                                                             
                                                                 
 flatten (Flatten)           (None, 2304)              0         
                                                                 
 dense (Dense)               (None, 128)               295040    
                                                                 
 dropout (Dropout)           (None, 128)               0         
                                                                 
 dense_1 (Dense)             (None, 64)                8256      
                                                                 
 dropout_1 (Dropout)         (None, 64)                0         
                                                                 
 dense_2 (Dense)             (None, 10)                650       
                                                                 
=================================================================
Total params: 1,411,274
Trainable params: 1,411,274
Non-trainable params: 0
_________________________________________________________________

[2021-12-12 00:18:02,536: INFO: stage_02_prepare_model]: >>>>> stage 02 completed!<<<<<

[2021-12-12 00:21:57,308: INFO: stage_03_prepare_callbacks]: 
…
